…
/scratch/yz3464/NLP/aes/hier_lstm.py:48: UserWarning: Update your `Dense` call to the Keras 2 API: `Dense(units=1, activation="sigmoid", name="output")`
  y = Dense(output_dim=1, activation='sigmoid', name='output')(avg_hz)
/scratch/yz3464/NLP/aes/hier_lstm.py:50: UserWarning: Update your `Model` call to the Keras 2 API: `Model(outputs=Tensor("ou..., inputs=Tensor("wo...)`
  model = Model(input=word_input, output=y)
<class 'tensorflow.python.framework.ops.Tensor'>
_________________________________________________________________
Layer (type)                 Output Shape              Param #   
=================================================================
word_input (InputLayer)      (None, 3550)              0         
_________________________________________________________________
x (Embedding)                (None, 3550, 50)          200000    
_________________________________________________________________
drop_x (Dropout)             (None, 3550, 50)          0         
_________________________________________________________________
resh_W (Reshape)             (None, 71, 50, 50)        0         
_________________________________________________________________
z (TimeDistributed)          (None, 71, 50, 100)       60400     
_________________________________________________________________
avg_z (TimeDistributed)      (None, 71, 100)           0         
_________________________________________________________________
hz (LSTM)                    (None, 71, 100)           80400     
_________________________________________________________________
drop_hz (Dropout)            (None, 71, 100)           0         
_________________________________________________________________
avg_hz (GlobalAveragePooling (None, 100)               0         
_________________________________________________________________
output (Dense)               (None, 1)                 101       
=================================================================
Total params: 340,901.0
Trainable params: 340,901.0
Non-trainable params: 0.0
_________________________________________________________________
Build model - INFO - Model compiled in 0.0130 s
Train sentence sequences sents-HiLSTM - INFO - Initial evaluation: 
Evaluate stats - INFO - [DEV]   QWK:  0.000, PRS: 0.000, SPR: 0.000, RMSE: 2.168, (Best @ -1: {{0.000}}, 0.000, 0.000, 2.168)
…
