…
/scratch/yz3464/NLP/aes/hier_networks.py:143: UserWarning: Update your `Dense` call to the Keras 2 API: `Dense(units=1, activation="sigmoid", name="output")`
  y = Dense(output_dim=1, activation='sigmoid', name='output')(avg_hz_lstm)
/scratch/yz3464/NLP/aes/hier_networks.py:148: UserWarning: Update your `Model` call to the Keras 2 API: `Model(outputs=Tensor("ou..., inputs=Tensor("wo...)`
  model = Model(input=word_input, output=y)
_________________________________________________________________
Layer (type)                 Output Shape              Param #   
=================================================================
word_input (InputLayer)      (None, 3550)              0         
_________________________________________________________________
x (Embedding)                (None, 3550, 50)          200000    
_________________________________________________________________
x_maskedout (ZeroMaskedEntri (None, 3550, 50)          0         
_________________________________________________________________
drop_x (Dropout)             (None, 3550, 50)          0         
_________________________________________________________________
resh_W (Reshape)             (None, 71, 50, 50)        0         
_________________________________________________________________
zcnn (TimeDistributed)       (None, 71, 46, 100)       25100     
_________________________________________________________________
avg_zcnn (TimeDistributed)   (None, 71, 100)           0         
_________________________________________________________________
hz_lstm (LSTM)               (None, 71, 100)           80400     
_________________________________________________________________
avg_hz_lstm (GlobalAveragePo (None, 100)               0         
_________________________________________________________________
output (Dense)               (None, 1)                 101       
=================================================================
Total params: 305,601.0
Trainable params: 305,601.0
Non-trainable params: 0.0
_________________________________________________________________
Build model - INFO - Model compiled in 0.0159 s
(1249, 3550)
Train sentence sequences Recurrent Convolutional model (LSTM stack over CNN) - INFO - Initial evaluation: 
Train sentence sequences Recurrent Convolutional model (LSTM stack over CNN) - INFO - Train model
…
